model1.pt (torch, 196161 bytes, 57 tensors)

word_embeddings.weight f4 [865, 10]
-0.3851591 1.1934483 -0.71644086 -2.0570698 -0.11878182 -0.88387895 -0.39697412 -0.81952846
0.79858595 -1.0489475 1.4490592 0.90604377 2.416569 -0.6177921 -1.2792777 1.4757593
-1.0380706 -0.4960319 0.62577397 -0.7551095 2.4418504 0.866252 0.8313744 0.40849018
-1.0515606 -0.7823597 -3.3476663 0.899362 -0.503271 1.3680384 -0.48894957 -0.6109234
-0.91889703 -0.57619333 1.3577392 0.9520457 0.95768195 2.5500464 -1.4929883 1.2189677
-2.2796805 -1.8426871 -0.0833661 0.66383517 -0.5605003 0.43746778 -1.0667009 1.6543702
-1.4071172 1.3527027 -1.74349 -1.3139633 0.28618103 0.6410053 0.47641438 -1.7166973
-0.32595906 0.3476277 -0.91473556 -0.81578475 1.0068527 0.2787681 -0.018210808 -1.9672576
1.448811 -0.6324766 -1.1864564 -1.2112238 -0.8731734 1.5164318 -1.8023664 -2.9296825
1.1964558 0.9652275 -0.22582151 -0.95042855 -0.38280615 1.5266972 -3.1980345 -1.2435734
-1.6893402 -0.35656515 0.25111783 0.41182914 -0.5228563 1.5032918 -2.3410695 1.9318988
-1.2183254 -0.123999014 0.70481396 1.3232449 -2.011217 -0.83303076 -2.845149 -0.12730932
-1.1223122 -0.13852558 0.7907386 0.09091422 -1.4452332 -0.24522437 0.31935823 -0.17010224
0.85410124 -1.2182525 -0.39428154 -1.2949206 -0.4637507 -2.519428 -0.90593165 0.6414295
-0.5258017 -0.6298352 -2.7590039 0.110542424 -2.6253808 -1.9095049 -1.463366 -2.2589078
0.04806144 0.6696793 0.95251673 -0.6990545 0.76133484 1.5074267 0.07971929 -1.3115261
0.065099195 -0.090406515 0.1487819 -0.98050743 1.1025449 1.1369588 -1.2284302 0.7778326
1.2916031 -1.0130634 1.1661988 0.7107213 -1.2863306 0.1858392 1.1055566 0.74500585
-1.426836 0.5107883 0.12414188 -0.5805238 0.50664127 0.13498339 -0.30534738 1.3969553
-0.036801286 1.2802762 -2.7805018 -0.41553804 0.1948831 0.94630575 -0.59287006 -0.53783906
0.69005847 0.2036369 -0.33725598 0.10668453 1.4556458 -0.87818813 -2.2833023 -0.4613276
-0.22117041 1.2085334 0.39409047 -1.0558401 2.5756912 1.09671 1.1770992 0.20633562
1.4826124 0.46274877 -1.0205723 2.0845914 -0.44814518 0.802402 -0.40854165 0.5187594
1.8835734 0.76188314 0.09890923 -0.66883326 1.4481143 0.22905698 -0.7731166 -1.3279936
1.1912289 -0.72766 1.4042221 -0.5804019 -0.12087726 0.5802488 0.5011576 0.11183733
-1.6138109 -1.0120345 0.68910056 2.008217 0.30719224 1.8835024 0.72426623 -0.1642419
-0.11793347 -1.244159 -0.16299021 -0.603129 1.6864094 2.277436 1.2424519 0.23670475
3.4058335 -0.16775288 1.0783404 1.5024618 0.26250505 2.2085419 -0.45878598 -1.4607818
-1.5745987 0.16382526 0.7527266 -0.47867453 1.7712369 0.7147627 -2.3789265 0.12549138
-0.50408286 -0.10133227 1.0697584 -0.06989792 1.1767063 1.3712548 0.76782614 -0.20424977
-2.8485746 -0.36089408 0.5917183 1.0818301 1.3092837 1.314928 0.9517551 0.288488
0.85323286 -2.488035 0.29311493 0.9319743 -1.5257837 -0.3674324 -1.2428128 -0.36052337
00000000: 9333 c5be eac2 983f ab68 37bf 08a7 03c0
00000010: e243 f3bd e445 62bf 3140 cbbe 9ecc 51bf
00000020: 2170 4c3f e943 86bf c67a b93f 7cf2 673f
00000030: 11a9 1a40 a027 1ebf 5fbf a3bf aee5 bc3f
00000040: 7fdf 84bf e5f7 fdbe b932 203f db4e 41bf
00000050: 4747 1c40 b1c2 5d3f f4d4 543f a025 d13e
00000060: 8a99 86bf ba48 48bf 2a40 56c0 973c 663f
00000070: 5ed6 00bf e21b af3f 9957 fabe 7a65 1cbf
00000080: d63c 6bbf 6881 13bf 66ca ad3f 44b9 733f
00000090: a52a 753f f633 2340 3e1a bfbf 2207 9c3f
000000a0: 49e6 11c0 2cdd ebbf d9bb aabd 1af1 293f
000000b0: f37c 0fbf c7fb df3e a889 88bf 67c2 d33f
000000c0: 6b1c b4bf 5d25 ad3f ae2a dfbf f32f a8bf
000000d0: 5286 923e ec18 243f 96ec f33e bdbc dbbf
000000e0: 1be4 a6be 42fc b13e 1c2c 6abf 45d7 50bf
000000f0: 8de0 803f b1ba 8e3e d52e 95bc 19cf fbbf
00000100: a472 b93f fde9 21bf cedd 97bf 6209 9bbf
00000110: 4b88 5fbf 701a c23f f1b3 e6bf eb7f 3bc0
00000120: 7725 993f 2619 773f c13d 67be 494f 73bf
00000130: 2bff c3be d06a c33f 99ac 4cc0 6a2d 9fbf
00000140: 4d3c d8bf b58f b6be 8492 803e 45db d23e
00000150: e9d9 05bf de6b c03f 15d4 15c0 7648 f73f
00000160: 16f2 9bbf 32f3 fdbd b06e 343f 1760 a93f
00000170: c8b7 00c0 8141 55bf ec16 36c0 605d 02be
00000180: eda7 8fbf a6d9 0dbe d86d 4a3f 3c31 ba3d
00000190: 67fd b8bf 191c 7bbe ec82 a33e 482f 2ebe
000001a0: 61a6 5a3f b3ef 9bbf 45df c9be f5bf a5bf
000001b0: bb70 edbe 4f3e 21c0 23eb 67bf b934 243f
000001c0: f19a 06bf e13c 21bf 8593 30c0 1164 e23d
000001d0: 3d06 28c0 a86a f4bf 944f bbbf f291 10c0
000001e0: 13dc 443d 1a70 2b3f 23d8 733f 3cf5 32bf
000001f0: d7e6 423f 5cf3 c03f de43 a33d 16e0 a7bf
00000200: ba52 853d 0d27 b9bd 485a 183e 8902 7bbf
00000210: 3120 8d3f de87 913f 333d 9dbf 0a20 473f
00000220: 4053 a53f 10ac 81bf 0146 953f d5f1 353f
00000230: 7ba6 a4bf a24c 3e3e e182 8d3f b4b8 3e3f
00000240: 90a2 b6bf 06c3 023f 193e fe3d 359d 14bf
00000250: 3eb3 013f 1639 0a3e 7e56 9cbe 6ecf b23f
00000260: f2bc 16bd 17e0 a33f bef3 31c0 67c1 d4be
00000270: 6f8f 473e 1841 723f 55c6 17bf d2af 09bf
00000280: aca7 303f 3186 503e d1ac acbe 6b7d da3d
00000290: 9a52 ba3f f0d0 60bf a021 12c0 2233 ecbe
000002a0: 7f7a 62be 39b1 9a3f 3ac6 c93e c525 87bf
000002b0: 20d8 2440 fe60 8c3f 30ab 963f a549 533e
000002c0: 3ec6 bd3f 68ed ec3e 1da2 82bf f269 0540
000002d0: 4973 e5be 386a 4d3f 5f2c d1be 6bcd 043f
000002e0: ef18 f13f c60a 433f ec90 ca3d a838 2bbf
000002f0: cf5b b93f ea8d 6a3e f8ea 45bf b2fb a9bf
00000300: 307a 983f ed47 3abf 8dbd b33f 3895 14bf
00000310: 7f8e f7bd 2f8b 143f dd4b 003f f80a e53d
00000320: 5b91 cebf 598a 81bf e568 303f a186 0040
00000330: 4d48 9d3e 9b16 f13f 8369 393f 072f 28be
00000340: 1a87 f1bd 9a40 9fbf e8e6 26be aa66 1abf
00000350: 43dc d73f 83c1 1140 aa08 9f3f bb62 723e
00000360: 2df9 5940 69c7 2bbe 0f07 8a3f ab50 c03f
00000370: 1067 863e c058 0d40 ffe5 eabe e6fa babf
00000380: 738c c9bf cfc1 273e b1b2 403f d414 f5be
00000390: e4b7 e23f b0fa 363f 5540 18c0 d080 003e
000003a0: 930b 01bf 4b87 cfbd d8ed 883f a426 8fbd
000003b0: 509e 963f 4785 af3f 4190 443f da26 51be
000003c0: 0c4f 36c0 1cc7 b8be da7a 173f 6979 8a3f
000003d0: 9c96 a73f 904f a83f 39a6 733f b3b4 933e
000003e0: 786d 5a3f f73b 1fc0 2913 963e de95 6e3f
000003f0: e14c c3bf 1920 bcbe 7d14 9fbf 8596 b8be

lstm.weight_ih_l0 f4 [40, 10]
0.14370182 -0.015142444 0.61129415 0.16143888 -0.91943955 -0.04842936 -1.1926961 0.08032464
0.36778912 0.091603294 -0.9405806 0.08515136 -0.16575281 0.1541967 0.08814014 -0.35878474
-0.05338522 -0.21491033 0.04791786 -0.286641 -0.18097684 -0.1412978 -0.41916725 0.17177998
-0.14829229 -0.0120332055 -0.41648853 0.40358785 -0.64774185 -0.048249282 -0.5678654 0.26018378
-0.19548799 0.25559214 -0.11731259 -0.2574369 -0.21227257 -0.27474877 -0.20810415 -0.44787136
0.0028914388 -0.40971163 -0.31809857 0.0012051709 -0.24887505 -0.28803396 -0.11157626 -0.120710135
-0.08167045 0.5098861 -0.065679595 0.7371975 0.046069685 -0.1553696 0.14780799 -0.39866444
0.66199243 -0.009400562 0.062186085 0.30170718 0.60882187 0.74617517 0.3234072 0.39138535
-0.71505964 1.0121317 -0.41459775 0.2980547 0.70411915 -0.31775808 0.15804 0.38982558
-0.8235994 0.2986976 -0.43649033 0.07925062 -0.32774487 -0.028719077 0.8338612 -0.14984193
1.6917132 0.7306645 0.11696284 -0.03372117 -1.5519377 0.37246105 -0.5665196 -0.47318402
0.28457814 0.2068431 0.062111076 0.34771615 -0.6939951 -0.95607376 0.43975034 -0.61958265
-1.0834825 -0.63047814 0.1911385 -0.44799152 0.37406057 0.44102773 -0.11215849 -0.38531366
-0.3858706 -0.15713544 0.07412031 -0.37261334 0.18870328 0.4541069 0.32441393 0.25595617
-0.0154337315 0.09368088 -0.22884466 -0.28086653 0.2122341 -0.23311394 0.13971443 -0.047882203
-0.39401138 -0.3089839 0.32727534 -0.34419683 -0.026469152 0.3997781 -0.13434136 -0.48923612
-0.6606423 -0.08226052 -0.28379193 0.15933865 0.2772502 -0.20090306 0.5337019 0.10871002
0.14988467 -0.13006672 0.13601588 -0.35700473 0.3612085 0.12317963 0.15414338 0.11486138
0.18963903 0.0965577 -0.5627211 -0.20177995 -0.4294198 -0.37545106 0.022840282 0.164339
-0.08002064 -0.033890523 0.30074865 0.016372995 0.24656211 -0.1422063 0.3899414 0.36333948
0.042367745 0.065268405 0.607831 -0.26936147 -0.45593393 0.34356096 0.018338509 -0.2987581
0.46847102 -0.1327446 -0.049745146 0.012244239 0.07484566 -0.064723656 -0.031317607 -0.42411873
-0.13734104 -0.14439978 0.067949265 -0.4598991 -0.04959461 0.15171447 0.0434453 -0.011504852
-0.23533067 -0.025854593 0.25567946 -0.17909011 0.11305724 0.027713537 -0.062247153 0.19232795
-0.77025145 -0.50293505 0.021937793 -0.327905 0.44570896 0.3725278 -0.06059742 -0.17731108
-0.899371 -0.81795114 -0.06495555 0.22631918 0.76407963 -0.17799225 0.26727185 0.6876713
-0.38682777 -0.026875746 -0.36902675 0.0011130208 -0.689961 -0.5035652 0.098851986 -0.44251722
-0.29426005 0.12025458 -0.6072402 -0.029265989 -0.11933806 0.057482775 -0.058332693 -0.35020846
-0.0018756317 0.19153973 -0.5413655 0.22924258 -0.4072238 -0.040194605 0.2937749 0.08653093
0.14071822 0.28221688 -0.11135465 -0.030107189 0.070788994 -0.16880393 0.30441114 0.4359278
0.046288542 -0.37282258 0.07960258 -0.009860547 -0.2817577 0.1062931 -0.58577347 -0.011505911
0.24945834 -0.009319918 -0.2114073 -0.048026998 -0.3053046 -0.17093207 -0.0856666 0.14662373
00000000: 9226 133e 0318 78bc c67d 1c3f 3c50 253e
00000010: 6460 6bbf dd5d 46bd 44aa 98bf 3f81 a43d
00000020: db4e bc3e 829a bb3d e4c9 70bf d663 ae3d
00000030: 1bbb 29be bde5 1d3e d182 b43d a2b2 b7be
00000040: 76aa 5abd 7411 5cbe 8545 443d 9cc2 92be
00000050: fe51 39be 5fb0 10be 179d d6be 17e7 2f3e
00000060: efd9 17be ec26 45bc fc3d d5be 11a3 ce3e
00000070: 69d2 25bf 0aa1 45bd a05f 11bf cf36 853e
00000080: 012e 48be f9dc 823e 9541 f0bd c5ce 83be
00000090: fb5d 59be dfab 8cbe 4119 55be 654f e5be
000000a0: 4b7e 3d3b b9c5 d1be d1dd a2be d3f6 9d3a
000000b0: 1ad9 7ebe 3079 93be 1882 e4bd e036 f7bd
000000c0: d642 a7bd e587 023f 0683 86bd fab8 3c3f
000000d0: 91b3 3c3d 3519 1fbe fa5a 173e bf1d ccbe
000000e0: 5678 293f d104 1abc d6b6 7e3d 5d79 9a3e
000000f0: c0db 1b3f 5605 3f3f a195 a53e a963 c83e
00000100: 260e 37bf 888d 813f 2846 d4be a09a 983e
00000110: 2741 343f 30b1 a2be 3dd5 213e 3897 c73e
00000120: 69d7 52bf e4ee 983e a97b dfbe 264e a23d
00000130: 2dce a7be 4544 ebbc ed77 553f 2a70 19be
00000140: 0f8a d83f d40c 3b3f 378a ef3d 361f 0abd
00000150: e5a5 c6bf 37b3 be3e 6e07 11bf 2d45 f2be
00000160: 3ab4 913e adce 533e 2f68 7e3d da07 b23e
00000170: aaa9 31bf 40c1 74bf f526 e13e f89c 1ebf
00000180: 8eaf 8abf 0467 21bf d0b9 433e 255f e5be
00000190: de84 bf3e 63ce e13e 5ab3 e5bd d547 c5be
000001a0: d590 c5be 1de8 20be 64cc 973d 2dc7 bebe
000001b0: 6f3b 413e b380 e83e 9519 a63e b00c 833e
000001c0: c3dd 7cbc c3db bf3d 4156 6abe bdcd 8fbe
000001d0: e553 593e 6cb5 6ebe 4d11 0f3e 2120 44bd
000001e0: dcbb c9be 2333 9ebe a290 a73e 913a b0be
000001f0: d6d5 d8bc b7af cc3e c890 09be 287d fabe
00000200: db1f 29bf 3478 a8bd 2d4d 91be ac29 233e
00000210: bdf3 8d3e 88b9 4dbe b0a0 083f 5ca3 de3d
00000220: 5e7b 193e 3630 05be bf47 0b3e 53c9 b6be
00000230: 52f0 b83e 9a45 fc3d c3d7 1d3e 713c eb3d
00000240: bc30 423e 0bc0 c53d 7d0e 10bf 679f 4ebe
00000250: e9dc dbbe 1f3b c0be 8b1b bb3c 7c48 283e
00000260: dce1 a3bd cad0 0abd bafb 993e a920 863c
00000270: c77a 7c3e 879e 11be 66a6 c73e a207 ba3e
00000280: cd89 2d3d 71ab 853d d09a 1b3f bfe9 89be
00000290: 2c70 e9be 39e7 af3e a43a 963c d2f6 98be
000002a0: 6fdb ef3e 33ee 07be 91c1 4bbd 109c 483c
000002b0: ae48 993d d68d 84bd e446 00bd 1726 d9be
000002c0: 21a3 0cbe 89dd 13be fc28 8b3d e577 ebbe
000002d0: b823 4bbd 0a5b 1b3e b3f3 313d d97e 3cbc
000002e0: 86fa 70be 03cd d3bc 6be8 823e 6663 37be
000002f0: 8e8a e73d 8007 e33c dff6 7ebd 9ef1 443e
00000300: 332f 45bf 5ac0 00bf e3b6 b33c 2ae3 a7be
00000310: f733 e43e f7bb be3e 0035 78bd 0991 35be
00000320: 2e3d 66bf 3f65 51bf 6a07 85bd 37c0 673e
00000330: b99a 433f 9a43 36be dbd7 883e 3a0b 303f
00000340: 4a0e c6be 862a dcbc 13f1 bcbe c8e2 913a
00000350: 49a1 30bf a6e9 00bf e972 ca3d 9e91 e2be
00000360: 41a9 96be 0948 f63d 1874 1bbf 3abf efbc
00000370: 8367 f4bd 0f73 6b3d 43ee 6ebd 864e b3be
00000380: c2d7 f5ba fe22 443e ee96 0abf 91be 6a3e
00000390: a37f d0be 19a3 24bd aa69 963e 2137 b13d
000003a0: 7018 103e bb7e 903e e80d e4bd 5aa3 f6bc
000003b0: d2f9 903d f0da 2cbe c7db 9b3e ee31 df3e
000003c0: 0e99 3d3d 9ae2 bebe ad06 a33d 228e 21bc
000003d0: 8c42 90be 32b0 d93d 40f5 15bf 4a83 3cbc
000003e0: 0272 7f3e 92b2 18bc 287b 58be f5b7 44bd
000003f0: e250 9cbe d108 2fbe f871 afbd 8824 163e

lstm.weight_hh_l0 f4 [40, 10]
-0.13918102 0.17278239 0.7835586 -0.26219067 0.3586968 0.6166074 -0.2559633 0.305256
-0.42067915 0.31995276 -0.16313477 -0.18595384 -0.04189744 -0.2541731 -0.03833707 0.67657167
0.08882374 0.788206 -0.07291359 0.35374337 0.033302203 0.41715664 0.691628 0.121482775
0.017482871 0.30095226 -0.21733648 0.56622213 0.18224199 0.32349113 0.046162717 0.32486275
0.8726356 -0.06003233 0.16192743 0.3488263 0.18456814 -0.3115068 -0.0759975 -0.06045332
-0.31280825 -0.06860456 0.40674385 -0.4592878 0.23335822 0.328823 0.038153585 0.7338034
-0.022851367 0.004583179 -0.26329842 -0.31957188 -0.12403252 -0.24130662 0.042650197 0.357551
-0.16489053 0.16851446 -0.28900683 -0.1937408 0.0037396317 0.33069053 0.49186614 -0.33610362
-0.13882124 -0.06675553 -0.19366984 0.17568327 0.22076218 0.19932298 0.10381456 -0.06956055
0.8292634 -0.8890989 0.32567734 0.59108776 -0.27881375 -0.40901375 -0.33665052 -0.087970786
-0.4533773 0.14955539 0.19987866 -0.06674568 0.023801176 -0.31340203 -0.57136625 -0.18814832
0.24235894 -0.20887612 0.062130854 0.0057356134 0.19582096 -0.10355253 0.1307225 0.24003693
0.17802438 0.89118314 -0.01490869 -0.8819344 0.18378703 -0.084514074 -0.05547682 0.04097721
-0.5400871 -0.6531706 -0.01641604 -0.29053935 -0.20514365 0.06473336 0.10040403 0.37048456
-0.48964766 -0.3269047 -0.19229445 0.0054162377 -0.08405879 -0.6405354 -0.32625884 0.37381527
-0.12923408 0.38047734 0.3961113 -0.31400624 0.08598088 -0.14746296 0.1901307 0.2581737
-0.25777695 0.039663732 0.009171237 0.008060421 0.5901327 0.23999925 -0.1604443 0.07613402
-0.3426998 0.08858269 -0.385853 0.11973285 -0.093229786 0.35779315 0.31571624 -0.05949782
0.44439143 0.38848716 -0.28044105 0.20056784 0.31638774 0.20304894 0.014346307 -0.6398932
0.45736575 -0.6714354 0.15903105 0.6163561 -0.6343503 -0.01580117 -0.18141456 -0.11670714
0.23326857 0.45989254 -0.3393892 0.36435837 -0.029567538 -0.6014723 0.26930276 -0.23641612
-0.3775361 0.19389805 -0.09782144 0.13228352 -0.74786067 0.034985367 0.014527025 -0.46987352
0.28991958 -0.11173916 0.3450858 0.8307571 0.44204825 0.45111054 -0.3877513 0.07664662
-0.35199097 -0.4718428 -0.29942706 -0.7661935 0.02031001 0.84220064 -0.06339765 0.15891287
-0.94377726 0.25572658 -0.085256174 -0.07504932 0.4638474 -0.17905828 -0.08254641 0.03566988
-0.046790276 0.39653704 -0.06694685 -0.066207394 0.21307473 0.14937575 -0.15068108 -0.46923026
0.06454295 0.6224602 -0.047765646 -0.45179334 -0.2762526 0.4251417 0.09716829 0.2823071
-0.08417118 0.10377749 0.24965598 0.07796887 -0.1467618 -0.10670373 -0.07525346 -0.049793225
-0.24617559 -0.0718454 -0.06740207 0.34997785 -0.2895902 0.0049065165 -0.22119159 0.06269857
-0.44333062 0.12432623 -0.24248919 -0.39396113 0.33771458 0.09177754 0.28551912 0.17969514
-0.17104362 0.10154659 0.46483782 -0.24779072 0.40712386 0.003155694 -0.20699012 0.10554915
0.35630304 -0.0004575067 -0.12232145 -0.44316927 0.097052015 -0.39898697 0.16868405 -0.03915785
00000000: 7885 0ebe deed 303e 4c97 483f db3d 86be
00000010: 1ba7 b73e fcd9 1d3f 9f0d 83be 844a 9c3e
00000020: 4263 d7be d9d0 a33e cd0c 27be af6a 3ebe
00000030: a69c 2bbd fa22 82be 5507 1dbd cd33 2d3f
00000040: 39e9 b53d dec7 493f b853 95bd da1d b53e
00000050: e467 083d 8e95 d53e 880e 313f f6cb f83d
00000060: 3d38 8f3c 6a16 9a3e 748d 5ebe eff3 103f
00000070: a59d 3a3e a1a0 a53e 1e15 3d3d 6954 a63e
00000080: 0c65 5f3f 76e4 75bd 4ed0 253e 5c99 b23e
00000090: 6eff 3c3e d27d 9fbe 94a4 9bbd e79d 77bd
000000a0: 6728 a0be 8c80 8cbd bb40 d03e c527 ebbe
000000b0: 75f5 6e3e 7d5b a83e ef46 1c3d 8ada 3b3f
000000c0: ca32 bbbc 7e2e 963b 0dcf 86be ed9e a3be
000000d0: c304 febd 1519 77be f9b1 2e3d ed10 b73e
000000e0: 10d9 28be 0e8f 2c3e b4f8 93be fd63 46be
000000f0: 9c14 753b 4550 a93e e1d5 fb3e c615 acbe
00000100: 2827 0ebe 20b7 88bd 6351 46be 51e6 333e
00000110: 7b0f 623e 531b 4c3e ba9c d43d c375 8ebd
00000120: 9b4a 543f fc9b 63bf 2ebf a63e 8751 173f
00000130: adc0 8ebe 406a d1be 755d acbe 072a b4bd
00000140: 1221 e8be 0c25 193e feac 4c3e f6b1 88bd
00000150: affa c23c 3b76 a0be 0f45 12bf f4a9 40be
00000160: f12c 783e 9fe3 55be ec7c 7e3d d0f1 bb3b
00000170: 4a85 483e 5913 d4bd 1edc 053e 3ecc 753e
00000180: 064c 363e 9424 643f 9443 74bc 74c6 61bf
00000190: ab32 3c3e b715 adbd a93b 63bd b8d7 273d
000001a0: 2643 0abf 3036 27bf ee7a 86bc 93c1 94be
000001b0: 2d11 52be ed92 843d a1a0 cd3d 27b0 bd3e
000001c0: 19b3 fabe 0e60 a7be d6e8 44be b27a b13b
000001d0: 0427 acbd 21fa 23bf 660b a7be b764 bf3e
000001e0: f055 04be edcd c23e 1acf ca3e 6dc5 a0be
000001f0: be16 b03d 8800 17be 9fb1 423e 582f 843e
00000200: 57fb 83be 7076 223d f542 163c db0f 043c
00000210: f012 173f 5dc2 753e 834b 24be 27ec 9b3d
00000220: 5976 afbe d76a b53d 868e c5be 7f36 f53d
00000230: 42ef bebd aa30 b73e 8fa5 a13e fcb3 73bd
00000240: 4687 e33e cae7 c63e f895 8fbe a861 4d3e
00000250: 93fd a13e 10ec 4f3e c60c 6b3c 0ad0 23bf
00000260: d82b ea3e 31e3 2bbf 09d9 223e 83c9 1d3f
00000270: c864 22bf 7571 81bc bdc4 39be 2704 efbd
00000280: f5dd 6e3e 0977 eb3e 6cc4 adbe 2e8d ba3e
00000290: 9f37 f2bc 17fa 19bf 0de2 893e 1117 72be
000002a0: 694c c1be 368d 463e 9b56 c8bd 5575 073e
000002b0: cc73 3fbf d14c 0f3d c202 6e3c 4393 f0be
000002c0: 5770 943e 80d7 e4bd 16af b03e 7fac 543f
000002d0: 2654 e23e f6f7 e63e 5787 c6be e7f8 9c3d
000002e0: 2938 b4be 6195 f1be 814e 99be 4225 44bf
000002f0: 2e61 a63c 769a 573f a1d6 81bd 0eba 223e
00000300: 639b 71bf 98ee 823e ca9a aebd 75b3 99bd
00000310: 687d ed3e 0e5b 37be 180e a9bd 951a 123d
00000320: 29a7 3fbd e706 cb3e 6e1b 89bd be97 87bd
00000330: 4330 5a3e f5f5 183e 244c 1abe f33e f0be
00000340: 182f 843d 8d59 1f3f e9a5 43bd 7551 e7be
00000350: fb70 8dbe 2cac d93e 2b00 c73d 8e8a 903e
00000360: f161 acbd 4b89 d43d d1a5 7f3e 25ae 9f3d
00000370: ba48 16be 7c87 dabd 7c1e 9abd fbf3 4bbd
00000380: 7415 7cbe ae23 93bd 190a 8abd 4c30 b33e
00000390: 2b45 94be d8c6 a03b 0c80 62be 1c68 803d
000003a0: 3bfc e2be c09e fe3d 164f 78be 46b5 c9be
000003b0: ede8 ac3e ddf5 bb3d 902f 923e 0102 383e
000003c0: 0f26 2fbe a9f7 cf3d 39ff ed3e dabc 7dbe
000003d0: 8a72 d03e c3cf 4e3b 38f5 53be 272a d83d
000003e0: 5a6d b63e 83dd efb9 ab83 fabd 15e7 e2be
000003f0: 35c3 c63d 0548 ccbe 83bb 2c3e fb63 20bd

lstm.bias_ih_l0 f4 [40]
0.7098097 0.4398405 0.78840375 0.3246372 0.3899007 -0.18083246 0.21226625 0.13057445
0.31182227 0.5277861 -0.20395732 -0.51395595 0.3131465 0.33699453 0.34082526 -0.014543787
-0.21922684 -0.11288543 -0.027927194 0.0064035696 -0.5393709 0.04032296 0.81294584 -0.121048786
0.53539795 0.3523416 -0.30545503 0.20482996 -0.25745347 0.31361914 0.5313411 0.26767907
0.599968 0.10624361 0.7193895 0.1535173 0.89513236 0.39539635 0.4470239 0.5931993
00000000: 17b6 353f c632 e13e d4d4 493f d936 a63e
00000010: 11a1 c73e 252c 39be 535c 593e 4fb5 053e
00000020: 2ba7 9f3e fd1c 073f 30da 50be 9e92 03bf
00000030: bd54 a03e 8c8a ac3e a680 ae3e 1049 6ebc
00000040: 007d 60be 7a30 e7bd 92c7 e4bc 09d5 d13b
00000050: 3614 0abf b029 253d 381d 503f 6de8 f7bd
00000060: d70f 093f 1e66 b43e 9a64 9cbe f2be 513e
00000070: f1d0 83be b092 a03e f805 083f 3b0d 893e
00000080: 8197 193f 4096 d93d e929 383f a433 1d3e
00000090: 6527 653f 6471 ca3e 51e0 e43e e9db 173f

lstm.bias_hh_l0 f4 [40]
0.86768687 0.60676956 0.2705441 0.010272891 0.5023282 0.38196108 0.5382141 0.46437177
0.30460075 0.17015323 -0.38636842 -0.4881708 0.41205156 0.07016738 0.16746637 0.2822345
0.027112529 -0.055078942 -0.57036287 -0.40897682 -0.5020369 -0.11646306 0.41834563 -0.2654539
0.39960065 0.2672864 -0.5069463 -0.11430348 -0.26069686 0.3705351 0.9962642 0.4748581
0.58043647 0.32362792 0.33555853 0.077181384 0.9644164 0.6053496 0.16345547 0.3288157
00000000: ba20 5e3f 4055 1b3f c284 8a3e a14f 283c
00000010: 9598 003f 6790 c33e 66c8 093f 23c2 ed3e
00000020: a1f4 9b3e a63c 2e3e 15d2 c5be 86f1 f9be
00000030: 6cf8 d23e eab3 8f3d 4e7c 2b3e 0a81 903e
00000040: 181b de3c 759a 61bd 4d03 12bf 6965 d1be
00000050: 7e85 00bf 2f84 eebd 6631 d63e 93e9 87be
00000060: 7598 cc3e c3d9 883e 3cc7 01bf f117 eabd
00000070: 0f7a 85be c7b6 bd3e 2c0b 7f3f 9a20 f33e
00000080: 7c97 143f 8fb2 a53e 54ce ab3e 4611 9e3d
00000090: fee3 763f 31f8 1a3f df60 273e 885a a83e

lstm.weight_ih_l0_reverse f4 [40, 10]
-0.7614639 -0.046240125 -0.38536048 -0.13083531 0.39328146 -0.07028161 0.20263931 -0.11256011
0.28237987 0.08282417 -0.45935637 0.3345236 0.0012861589 -0.39113778 0.29646033 0.54355717
-0.20791021 0.330576 0.07647339 -0.20905602 0.6451477 0.15992008 -0.3711807 -0.30083022
-0.21426108 0.1407139 -0.63507867 -0.38134736 -0.49512926 0.22034818 -0.14618309 0.0141149275
-0.5166606 -0.31921726 -0.79473853 0.15377 -0.44080073 -0.012761275 0.18872856 0.228046
-0.09940573 0.35785064 -0.2357988 -0.443365 0.36260542 -0.21666303 -0.53068537 0.43245375
-0.92579144 -0.3897312 0.04552289 0.085401274 -0.08585718 -0.34214237 -0.13417588 -0.26382738
-0.380854 0.06735879 -0.27194536 -0.18872598 -0.2675403 -0.2311198 -0.21855123 0.1610609
0.19026516 0.18816386 0.1977036 -0.014451476 -0.59251696 -0.41775846 -0.5405834 0.3832346
-0.17647924 -0.3367987 0.21409895 0.26379526 -0.32771182 -0.17832851 -0.20869438 -0.20271887
-0.9763383 -0.20568612 -0.9732508 -0.46570206 -0.4094369 -0.45174134 -0.22871223 -0.41697502
-0.022367178 -0.57214844 -0.8492964 -0.21242085 -0.13160892 -0.5124355 -0.14322679 0.09729648
0.064054824 -0.8444964 0.46061227 -0.21973641 0.27598998 0.38290232 -0.45279148 0.19015996
-0.08842153 -0.30055884 -0.026754385 -0.19562079 -0.4532469 -0.046897743 0.14509164 0.2651949
-0.030567875 0.051254664 0.0936609 -0.2261923 0.1796874 0.18419607 -0.12175617 -0.106831804
-0.36906573 0.36230806 -0.21913987 -0.28244463 0.050600104 -0.12894264 0.18382214 0.08932338
-0.31532323 -0.33960617 0.06929142 -0.35023293 0.34463447 -0.2164745 0.12591466 0.122171
0.5921768 -0.18215592 0.31338027 -0.13650835 -0.17073825 -0.23593007 -0.43002325 -0.4653737
0.43420306 -0.9683044 -0.011114113 -0.18970633 0.32246524 -0.30417696 0.045786884 0.2159549
-0.3782744 0.16909586 0.0142561365 -0.3642665 -0.04671515 -0.19587304 -0.12932007 -0.050664097
-0.10522485 -0.12344479 0.13382402 0.17413187 -0.7910706 0.00842459 0.30488592 -0.015422767
-0.7233475 -0.4059402 0.22503519 0.27483633 0.09032501 -0.3434502 0.044670343 -0.38945886
-0.2931178 -0.14746822 -0.1768927 0.21563496 0.28865167 0.027816817 -0.0022395933 -0.11506457
-0.15149775 -0.28796613 -0.06667167 -0.2792969 0.17407171 -0.09564053 0.28722897 0.19137096
-0.15691017 0.13972935 -0.08925108 -0.46705237 0.35182592 0.2135706 0.23731636 -0.24312615
-0.20652986 -0.75125736 0.4970381 0.6247728 0.9218819 0.5611671 1.0465901 0.6972296
0.7209497 0.33065534 0.35303465 -0.30600002 -0.08675902 0.037763253 -0.6014969 0.18046317
0.42269716 -0.14263825 -0.5215479 -0.10276676 0.01511436 0.5147358 -0.11031076 -0.15347409
-0.11597077 -0.27328077 -0.29027748 -0.34116423 -0.40936565 -0.35912907 -0.1514367 -0.39090422
0.24258983 0.3975416 0.31481776 0.40097028 0.15864582 -7.076282e-05 -0.14598471 0.33490664
0.28992683 0.34963185 0.3963136 -0.01278482 0.025724547 0.5912466 0.909812 -0.18500976
-0.122505404 0.081928335 -0.08018361 0.22706354 -0.3562167 0.15256202 0.48405713 -0.04222555
00000000: 4cef 42bf 4966 3dbd f84d c5be b1f9 05be
00000010: 305c c93e ceef 8fbd ae80 4f3e ea85 e6bd
00000020: 1894 903e b89f a93d c230 ebbe ad46 ab3e
00000030: 5594 a83a 3643 c8be a6c9 973e 9026 0b3f
00000040: 6ae6 54be 4241 a93e 159e 9c3d c812 56be
00000050: 6628 253f 17c2 233e 660b bebe 6b06 9abe
00000060: 4267 5bbe 4e17 103e 8494 22bf f63f c3be
00000070: 9581 fdbe f4a2 613e 05b1 15be 4c42 673c
00000080: de43 04bf 7270 a3be fc73 4bbf e275 1d3e
00000090: a2b0 e1be ab14 51bc 0f42 413e e484 693e
000000a0: 3b95 cbbd 3338 b73e 3e75 71be bd00 e3be
000000b0: 6ba7 b93e eadc 5dbe ffda 07bf 946a dd3e
000000c0: ab00 6dbf d98a c7be 3676 3a3d dde6 ae3d
000000d0: e4d5 afbd 492d afbe 6765 09be 6214 87be
000000e0: 4cff c2be 68f3 893d 6c3c 8bbe 6241 41be
000000f0: 0bfb 88be abaa 6cbe e5cb 5fbe 26ed 243e
00000100: dfd4 423e 07ae 403e d072 4a3e e2c5 6cbc
00000110: 31af 17bf 70e4 d5be ac63 0abf 5337 c43e
00000120: f9b6 34be e170 acbe c13c 5b3e 2c10 873e
00000130: d8c9 a7be c09b 36be fbb3 55be 8995 4fbe
00000140: 4ff1 79bf 629f 52be f726 79bf 8070 eebe
00000150: b7a1 d1be a44a e7be 8a33 6abe c07d d5be
00000160: 5f3b b7bc 5278 12bf 7d6b 59bf da84 59be
00000170: 7dc4 06be f92e 03bf 0baa 12be 6043 c73d
00000180: 2d2f 833d eb30 58bf 5fd5 eb3e 9502 61be
00000190: 8f4e 8d3e c60b c43e 49d4 e7be 4bb9 423e
000001a0: 5916 b5bd d9e2 99be 032c dbbc d150 48be
000001b0: fa0f e8be d917 40bd e792 143e a0c7 873e
000001c0: 7b69 fabc 69f0 513d 49d1 bf3d f49e 67be
000001d0: f9ff 373e e59d 3c3e 4d5b f9bd a2ca dabd
000001e0: 2ff6 bcbe 7180 b93e 3466 60be 959c 90be
000001f0: 0e42 4f3d 8a09 04be df3b 3c3e 2def b63d
00000200: 0c72 a1be dce0 adbe a9e8 8d3d bb51 b3be
00000210: ee73 b03e 7eab 5dbe c6ef 003e ca34 fa3d
00000220: e698 173f 1587 3abe 6173 a03e d8c8 0bbe
00000230: 02d6 2ebe a797 71be 022c dcbe 7645 eebe
00000240: dd4f de3e cce2 77bf f817 36bc 6042 42be
00000250: 2a1a a53e 15bd 9bbe 078b 3b3d 4823 5d3e
00000260: 2fad c1be 7727 2d3e 9292 693c 2481 babe
00000270: 6358 3fbd f192 48be 7b6c 04be 2885 4fbd
00000280: 2080 d7bd 9fd0 fcbd 2a09 093e a04f 323e
00000290: 9a83 4abf 4b07 0a3c 021a 9c3e c6af 7cbc
000002a0: 4d2d 39bf 65d7 cfbe a06f 663e 59b7 8c3e
000002b0: 52fc b83d b4d8 afbe 40f8 363d 2767 c7be
000002c0: 8913 96be e901 17be 5c23 35be 69cf 5c3e
000002d0: 27ca 933e 18e0 e33c 24c6 12bb f9a6 ebbd
000002e0: 3a22 1bbe 4c70 93be 288b 88bd 0100 8fbe
000002f0: db3f 323e 2fdf c3bd ad0f 933e c0f6 433e
00000300: 0fad 20be 3615 0f3e 45c9 b6bd 7d21 efbe
00000310: 8722 b43e 40b2 5a3e 0f03 733e 10f6 78be
00000320: 907c 53be 6752 40bf c77b fe3e 1cf1 1f3f
00000330: 7400 6c3f a6a8 0f3f aaf6 853f a47d 323f
00000340: 2990 383f a84b a93e f5c0 b43e 09ac 9cbe
00000350: b7ae b1bd a4ad 1a3d b3fb 19bf 56cb 383e
00000360: c36b d83e c30f 12be 2a84 05bf 6177 d2bd
00000370: 38a2 773c bac5 033f 9cea e1bd 5028 1dbe
00000380: 1582 edbd 75eb 8bbe 409f 94be 14ad aebe
00000390: 6098 d1be c4df b7be 3912 1bbe 9924 c8be
000003a0: 7869 783e 938a cb3e cb2f a13e fa4b cd3e
000003b0: 0d74 223e 8066 94b8 047d 15be e278 ab3e
000003c0: 4a71 943e f202 b33e 9ee9 ca3e 6c77 51bc
000003d0: 49bc d23c f05b 173f 70e9 683f 3373 3dbe
000003e0: 1de4 fabd 0bca a73d 4e37 a4bd 5883 683e
000003f0: 0962 b6be 3839 1c3e 56d6 f73e b3f4 2cbd

lstm.weight_hh_l0_reverse f4 [40, 10]
0.2507664 0.42726758 0.9801504 -0.47804707 0.093663625 0.2754372 0.46442437 0.31107873
0.24751453 -0.15308578 -0.3206024 0.23727277 0.5183961 0.107223645 0.3222026 -0.050555788
0.38363218 -0.095759496 -0.45175454 -0.5624995 0.30455586 0.05013227 0.13219208 0.318896
-0.5621677 0.2814258 0.2180823 0.33487967 -0.13297966 -0.1583341 -0.40638202 0.0725353
0.456162 0.11971766 0.038727973 0.29800296 0.12156808 0.006231927 -0.25699738 0.20019159
0.33218244 0.27059373 0.0076837493 -0.46538997 0.069355115 -0.20919429 0.617905 -0.16450608
0.16756828 0.23336323 -0.46455652 -0.41671458 0.35167465 0.29009902 -0.25326666 0.241701
-0.19778381 -0.0106181335 -0.5225024 0.07432898 -0.53282547 -0.12648888 0.66269815 -0.22987433
-0.45832145 0.3418441 0.009502185 -0.2990548 -0.22220182 0.25324276 -0.1661613 0.08823216
0.07272773 0.9157723 0.68084115 0.5908015 0.5571096 -0.34742552 0.08725742 -0.6988381
-0.115949556 0.26099643 0.6617304 -0.12137587 0.27388647 0.76140356 -0.11858437 0.20353056
0.15838617 0.18603894 0.1694586 -0.06315212 0.42972293 0.19026028 0.41849947 0.27942538
0.35502294 0.16551237 0.15370086 -0.2951471 -0.003820067 -0.23618318 -0.37320507 -0.033174414
0.31955153 -0.06346334 -0.36664897 0.14294969 0.026971085 0.3199032 0.08481633 -0.23921646
-0.07271882 -0.0008110886 -0.16516493 0.18457948 0.0475502 0.05635645 -0.053575892 -0.034902666
-0.2444261 -0.18575704 0.20162204 -0.18391874 0.37082022 -0.09018272 0.18273039 -0.1355876
-0.24790506 0.14306878 -0.15094489 -0.15738198 -0.2529638 0.10683166 0.047783952 -0.19876987
-0.46848682 -0.028798467 0.25536436 0.25683963 0.39567614 0.07351089 -0.8073206 0.016046554
0.3068951 0.08753861 -0.24876228 -0.07633617 0.1431925 0.18897405 0.059797738 -0.1748404
0.036253333 -0.08885164 0.4449234 -0.03612086 0.35056925 0.31197768 0.065882206 -0.0038507192
0.09617364 0.09149633 0.17668507 0.044144105 0.34672683 0.15666652 0.28603777 0.4488161
0.269275 -0.33756673 0.21319132 0.06779015 0.029161524 0.15877317 -0.22822133 0.36968893
-0.025947856 0.07099813 -0.12512256 -0.005317816 0.47311357 0.017756687 -0.10164438 -0.39677995
0.076698646 -0.5245805 -0.4795966 -0.21850236 0.28276104 0.32901755 -0.10756992 -0.1546733
-0.023242788 -0.29788333 0.20818868 -0.1752036 -0.15171772 0.029550912 0.1464488 -0.03725931
-0.0088908365 0.04310038 0.22741602 0.04531218 0.13793352 0.051881086 -0.47644392 0.13815592
-0.14790069 0.424602 0.057878044 -0.19193602 0.19475932 0.08130166 -0.34149504 0.084627874
-0.15936415 0.12471756 0.11236756 -0.44345558 0.11015616 0.2296773 0.2273706 -0.009044638
-0.14593558 0.18128034 0.30629313 0.17079987 0.25165468 -0.3234268 -0.39753848 -0.32005236
0.20374058 -0.38661063 0.18993251 0.22957805 -0.022251291 -0.114812195 -0.2523443 0.08836914
0.14942744 -0.1466843 -0.10919406 -0.21796402 -0.10204961 -0.13436282 -0.11435679 -0.11539938
-0.3763767 -0.17647244 0.21837461 -0.1106826 0.23948415 -0.23609538 0.018965678 -0.057095233
00000000: 7464 803e d1c2 da3e 23eb 7a3f 96c2 f4be
00000010: b7d2 bf3d 1b06 8d3e 08c9 ed3e b645 9f3e
00000020: 7374 7d3e 85c2 1cbe ff25 a4be a2f7 723e
00000030: 9bb5 043f 1298 db3d bdf7 a43e 9613 4fbd
00000040: 706b c43e 8e1d c4bd 5f4c e7be f8ff 0fbf
00000050: bfee 9b3e 7f57 4d3d 5c5d 073e 5646 a33e
00000060: 39ea 0fbf 0b17 903e f750 5f3e 5975 ab3e
00000070: d22b 08be 5622 22be 4e11 d0be 638d 943d
00000080: 118e e93e 882e f53d 39a1 1e3d d893 983e
00000090: aff8 f83d 3135 cc3b 2995 83be 06ff 4c3e
000000a0: d113 aa3e 438b 8a3e f6c7 fb3b 9847 eebe
000000b0: 0e0a 8e3d 0737 56be 062f 1e3f 4874 28be
000000c0: 0597 2b3e c5f6 6e3e 5ada edbe 9d5b d5be
000000d0: b30e b43e dc87 943e 2bac 81be 7880 773e
000000e0: d787 4abe aef7 2dbc b8c2 05bf cb39 983d
000000f0: 4067 08bf 4d86 01be 96a6 293f 2d64 6bbe
00000100: 1ca9 eabe 3106 af3e 0daf 1b3c b61d 99be
00000110: e088 63be 09a9 813e 3026 2abe 10b3 b43d
00000120: 47f2 943d 0e70 6a3f 9b4b 2e3f c43e 173f
00000130: bc9e 0e3f c2e1 b1be 05b4 b23d 0ee7 32bf
00000140: f676 edbd 53a1 853e 2a67 293f ea93 f8bd
00000150: d93a 8c3e 58eb 423f 5ddc f2bd 516a 503e
00000160: fc2f 223e fe80 3e3e 8e86 2d3e e655 81bd
00000170: a504 dc3e 97d3 423e 9045 d63e d810 8f3e
00000180: 91c5 b53e 137c 293e c263 1d3e 851d 97be
00000190: 175a 7abb 01da 71be bc14 bfbe e5e1 07bd
000001a0: 429c a33e 11f9 81bd 6ab9 bbbe 6761 123e
000001b0: 77f2 dc3c 5aca a33e 2fb4 ad3d 29f5 74be
000001c0: 9bed 94bd 3c9f 54ba ff20 29be 6702 3d3e
000001d0: 00c4 423d 05d6 663d 6572 5bbd 19f6 0ebd
000001e0: d64a 7abe 1837 3ebe 0276 4e3e 3255 3cbe
000001f0: 26dc bd3e b8b1 b8bd ad1d 3b3e 7ad7 0abe
00000200: d3da 7dbe 9f80 123e 4c91 1abe be28 21be
00000210: 7984 81be 8fca da3d 1bb9 433d 548a 4bbe
00000220: 81dd efbe c3ea ebbc 1ebf 823e 7c80 833e
00000230: 1096 ca3e e18c 963d 90ac 4ebf 1074 833c
00000240: 5b21 9d3e 7147 b33d 8abb 7ebe 2356 9cbd
00000250: 0ea1 123e 6a82 413e 79ee 743d 5d09 33be
00000260: 607e 143d d9f7 b5bd 00cd e33e 78f3 13bd
00000270: d07d b33e 8abb 9f3e 40ed 863d 595c 7cbb
00000280: aff6 c43d 6e62 bb3d eeec 343e 73d0 343d
00000290: 2e86 b13e 306d 203e 8b73 923e 39cb e53e
000002a0: 6ade 893e 8cd5 acbe d34e 5a3e 90d5 8a3d
000002b0: 26e4 ee3c 6f95 223e dab2 69be de47 bd3e
000002c0: 9990 d4bc 7867 913d 2120 00be 1341 aebb
000002d0: f13b f23e 7976 913c ee2a d0bd be26 cbbe
000002e0: 2e14 9d3d e84a 06bf b08d f5be 15bf 5fbe
000002f0: 0ec6 903e fd74 a83e 9e4d dcbd ad62 1ebe
00000300: a967 bebc 2a84 98be 6a2f 553e 9368 33be
00000310: e45b 1bbe c114 f23c adf6 153e 389d 18bd
00000320: dfaa 11bc 068a 303d bfdf 683e 4499 393d
00000330: 723e 0d3e 4381 543d 75f0 f3be bf78 0d3e
00000340: 4773 17be 6f65 d93e 8711 6d3d e08a 44be
00000350: fd6e 473e 7c81 a63d 70d8 aebe 6151 ad3d
00000360: 5b30 23be ec6b ff3d f720 e63d 9c0c e3be
00000370: 8e99 e13d 8730 6b3e d7d3 683e f62f 14bc
00000380: 2370 15be 8ea1 393e 74d2 9c3e 29e6 2e3e
00000390: e2d8 803e 3398 a5be 2a8a cbbe e7dd a3be
000003a0: 5fa1 503e d4f1 c5be ab7d 423e 8216 6b3e
000003b0: 5748 b6bc a822 ebbd 4633 81be e1fa b43d
000003c0: 8203 193e 6934 16be 23a1 dfbd f631 5fbe
000003d0: 63ff d0bd 6896 09be e533 eabd 8356 ecbd
000003e0: 72b4 c0be 31b5 34be 989d 5f3e 8fad e2bd
000003f0: 553b 753e fdc2 71be e95d 9b3c b1dc 69bd

lstm.bias_ih_l0_reverse f4 [40]
0.94737744 0.29515085 0.34387395 0.5418831 0.08017413 -0.14482383 0.5810967 0.4774904
0.5419089 0.62487084 -0.20208858 -0.3966547 -0.04356512 -0.1603523 -0.44757926 0.07898132
0.37814364 -0.492944 -0.70346296 -0.44108504 -0.35407442 0.14481993 0.2844831 0.3790166
0.047976628 0.08844404 0.48797667 -0.022720193 0.1887611 0.13592331 0.21036392 0.11058959
0.62665796 0.8292897 0.46890312 0.15044445 0.21789667 0.60913384 0.6245461 0.7991069
00000000: 5487 723f 031e 973e 3f10 b03e dab8 0a3f
00000010: 5632 a43d b34c 14be c1c2 143f 9f79 f43e
00000020: 8bba 0a3f 89f7 1f3f 4ff0 4ebe 5316 cbbe
00000030: 5771 32bd 6533 24be 1c29 e5be f5c0 a13d
00000040: 0b9c c13e 2863 fcbe 2616 34bf e6d5 e1be
00000050: 3e49 b5be ad4b 143e c5a7 913e 770e c23e
00000060: 2483 443d 2622 b53d 14d8 f93e b31f babc
00000070: 974a 413e 7b2f 0b3e a469 573e cc7c e23d
00000080: a86c 203f 544c 543f 1214 f03e 1c0e 1a3e
00000090: 4e20 5f3e 32f0 1b3f 41e2 1f3f 4592 4c3f

lstm.bias_hh_l0_reverse f4 [40]
0.68853587 0.45828757 0.640042 0.47791147 0.2953923 -0.14026174 0.21654582 0.6540645
0.6926655 0.46589822 -0.39757565 0.06346753 -0.05513019 -0.14392592 -0.45498988 0.098944224
0.19991687 -0.11559815 -0.35791 -0.27674508 -0.3525416 -0.09166894 0.0903288 0.047131043
-0.33938035 0.17795491 0.12595975 0.36213872 0.061319754 0.1360507 0.3303225 0.5598647
0.27441445 0.47357726 0.46342155 -0.11466719 0.4254811 0.21970978 0.8225928 0.75725436
00000000: e343 303f aba4 ea3e cbd9 233f d0b0 f43e
00000010: a93d 973e c6a0 0fbe 30be 5d3e c570 273f
00000020: 8752 313f 368a ee3e 098f cbbe 44fb 813d
00000030: 32d0 61bd 5161 13be 6ff4 e8be 45a3 ca3d
00000040: 02b7 4c3e b9be ecbd fb3f b7be 88b1 8dbe
00000050: 5580 b4be edbc bbbd 4efe b83d 7b0c 413d
00000060: 43c3 adbe d039 363e 98fb 003e 3f6a b93e
00000070: 6c2a 7b3d e050 0b3e 0820 a93e 4b53 0f3f
00000080: 0d80 8c3e b878 f23e 9745 ed3e a2d6 eabd
00000090: a9d8 d93e 9afb 603e 7195 523f 6cdb 413f

lstm.weight_ih_l1 f4 [40, 20]
-0.3813148 0.16692752 1.6967719 -0.105818264 0.31669626 0.34210035 -0.94368464 0.26976722
0.029154025 -0.00054680504 0.05426915 -0.1688363 0.4338629 -0.22740729 -0.3821885 0.26530334
0.30545652 -0.20269848 0.20976941 0.3253505 0.20658742 0.21735448 0.93789893 -0.096981995
0.5313926 0.054524805 -1.3526402 -0.079232104 -0.74544513 0.4401246 -0.03747945 -0.28803137
-0.04598939 0.17195126 0.22405069 0.26482996 -0.055779476 -0.12007548 -0.044272386 0.32830966
-0.698224 0.26037192 0.9533683 -0.2850135 0.90208304 0.29360408 -0.4060948 0.1740133
-0.13823995 0.045450676 -0.4758452 -0.12001645 0.0787229 0.049758658 -0.76003975 0.34584397
0.67282504 0.15003175 -0.118909605 -0.10870125 -0.3114447 0.31910342 -0.018721858 -0.15219522
0.09216073 0.35981822 -1.3600401 -0.13132295 -0.02125781 0.32767817 -0.09344409 0.013353186
0.5066904 -0.39508295 -0.47626683 0.26447123 -0.34111172 0.101093076 -0.7040229 -0.0685639
-0.08782145 -0.23319562 1.2486217 -0.093961686 0.25346473 0.39910275 -0.8129576 -0.021495735
0.018561756 -0.044407286 -0.09210545 -0.20338567 0.64608234 -0.27918392 -0.07872358 0.32532957
0.5069047 -0.31021398 -0.11065615 -0.12809438 -0.38141415 0.112282306 1.9589816 -0.21209803
0.37913853 0.069589876 -0.0052765403 0.030558465 0.44406962 0.21098444 -0.1564797 -0.13065532
0.63503623 -0.098292954 -0.2749725 -0.031018654 0.6496276 0.39502427 0.14740326 -0.14499407
-0.12673046 -0.22433877 1.818403 -0.5839283 0.30697495 0.63610053 -0.5157155 -0.13518624
-0.05681111 0.27593428 -0.056087807 -0.1626572 0.894401 -0.3383084 -0.3462328 0.013221256
0.5367649 -0.015957387 0.07736205 0.39799252 -0.3902662 0.2558237 0.7056988 -0.37918094
0.66258174 0.32807532 -0.52999693 -0.15087877 0.104368195 0.058236923 -0.14213192 -0.014833274
0.8330935 -0.2305457 -0.20318373 0.11113588 -0.5197498 -0.1876095 -0.7086937 0.054203365
-0.24212784 0.30341023 1.0826138 -0.48220396 0.6170687 0.18203716 -0.610912 0.226296
0.13537394 0.04419533 -0.2931769 -0.011938177 0.18585972 -0.08353255 -0.14246123 0.2682593
0.80630916 0.000862082 -0.06209713 0.155705 -0.44729176 0.16045766 1.3295962 -0.18757468
0.7487898 0.651735 -0.6420993 0.24583523 -0.03977273 -0.0071864626 -0.23206377 -0.06403092
0.62814873 0.3670096 -0.46490738 0.16310509 0.48027503 0.34627387 0.4021018 -0.101638354
-0.026265213 0.020126687 -0.4625737 -0.26532558 -0.02272718 -0.3206768 0.19881654 -0.0275043
-0.08443877 0.27859917 0.17384705 0.22948003 -0.14758952 0.17110276 -0.27522272 0.035739984
-0.20316501 -0.31197006 0.062003877 -0.33109507 0.13211572 -0.25638995 -0.057789598 -0.04096966
-0.03739724 0.19898528 -0.02159359 -0.40883973 0.12982604 -0.02314264 0.33789447 -0.011835525
-0.27424514 0.04644878 0.050328795 0.29666626 -0.047041275 -0.00026902443 -0.044573937 0.037045505
0.12154093 0.35312742 0.72976786 -0.22649115 0.5097284 0.3681218 -0.2505697 0.4899318
-0.16179226 -0.075545155 0.27931613 0.7178269 -0.4247226 1.1308178 0.38907954 -0.6756888
00000000: b23b c3be 0cef 2a3e d22f d93f 3fb7 d8bd
00000010: 0326 a23e c727 af3e 5195 71bf ee1e 8a3e
00000020: 6cd4 ee3c 7757 0fba 5449 5e3d 6ce3 2cbe
00000030: 4723 de3e 75dd 68be 36ae c3be d7d5 873e
00000040: cc64 9c3e 3190 4fbe cbcd 563e 5794 a63e
00000050: a78b 533e 2c92 5e3e 251a 703f 7f9e c6bd
00000060: 5809 083f 6755 5f3d 5023 adbf 7144 a2bd
00000070: 7ed5 3ebf 0358 e13e 0d84 19bd d978 93be
00000080: 5f5f 3cbd fe13 303e 8b6d 653e cb97 873e
00000090: 0579 64bd 22ea f5bd f656 35bd 3418 a83e
000000a0: cfbe 32bf 784f 853e f20f 743f 4aed 91be
000000b0: eaee 663f 4653 963e a8eb cfbe 8b30 323e
000000c0: c68e 0dbe 7d2a 3a3d fba1 f3be 2fcb f5bd
000000d0: 7939 a13d bccf 4b3d f791 42bf 7612 b13e
000000e0: 433e 2c3f eca1 193e e186 f3bd c39e debd
000000f0: ae75 9fbe 8661 a33e 955e 99bc 10d9 1bbe
00000100: c4be bc3d 183a b83e cb15 aebf 8679 06be
00000110: dc24 aebc 6fc5 a73e 9d5f bfbd 52c7 5a3c
00000120: 76b6 013f 5048 cabe 3fd9 f3be c668 873e
00000130: 32a6 aebe e309 cf3d d83a 34bf 3b6b 8cbd
00000140: bbdb b3bd d5ca 6ebe d6d2 9f3f fc6e c0bd
00000150: 21c6 813e 3257 cc3e fd1d 50bf d317 b0bc
00000160: d30e 983c 6ae4 35bd c8a1 bcbd 5544 50be
00000170: a765 253f 32f1 8ebe d439 a1bd 9991 a63e
00000180: 82c4 013f 5ed4 9ebe b19f e2bd 2c2b 03be
00000190: b748 c3be 44f4 e53d e9bf fa3f 3a30 59be
000001a0: 721e c23e 2385 8e3d d4e6 acbb bf55 fa3c
000001b0: 185d e33e 4e0c 583e 373c 20be 82ca 05be
000001c0: bc91 223f d14d c9bd 32c9 8cbe d51a febc
000001d0: ff4d 263f 9f40 ca3e e1f0 163e 5379 14be
000001e0: a1c5 01be 10b9 65be 6ec1 e83f 537c 15bf
000001f0: d22b 9d3e 7cd7 223f ee05 04bf 436e 0abe
00000200: c4b2 68bd 4247 8d3e 54bc 65bd 9c8f 26be
00000210: 77f7 643f c236 adbe 6d45 b1be f89d 583c
00000220: 6d69 093f 11b9 82bc ff6f 9e3d adc5 cb3e
00000230: f9d0 c7be 53fb 823e ada8 343f 0124 c2be
00000240: f59e 293f 7df9 a73e e1ad 07bf f77f 1abe
00000250: febe d53d d789 6e3d 088b 11be 4307 73bc
00000260: 9e45 553f 2c14 6cbe 650f 50be 359b e33d
00000270: 530e 05bf b41c 40be f36c 35bf 5904 5e3d
00000280: 5cf0 77be 9658 9b3e 1793 8a3f 70e3 f6be
00000290: 37f8 1d3f f367 3a3e bb64 1cbf 23ba 673e
000002a0: 779f 0a3e 2a06 353d 481b 96be 5898 43bc
000002b0: 0352 3e3e 1d13 abbd 5be1 11be 4859 893e
000002c0: 476a 4e3f 58fd 613a 8f59 7ebd 2271 1f3e
000002d0: 6d03 e5be 034f 243e 3530 aa3f 9413 40be
000002e0: b0b0 3f3f 1bd8 263f 9f60 24bf 3bbc 7b3e
000002f0: bbe8 22bd 6b7c ebbb 20a2 6dbe a522 83bd
00000300: 5bce 203f afe8 bb3e 5708 eebe 0505 273e
00000310: 9ce6 f53e cf4a b13e 4ae0 cd3e c527 d0bd
00000320: 252a d7bc b9e0 a43c 76d6 ecbe c1d8 87be
00000330: 5a2e babc c02f a4be 9096 4b3e b350 e1bc
00000340: 3cee acbd 8da4 8e3e f604 323e d0fc 6a3e
00000350: b521 17be 9035 2f3e fee9 8cbe 1764 123d
00000360: 7d0a 50be 8aba 9fbe c7f7 7d3d 4b85 a9be
00000370: 5849 073e 8b45 83be c9b4 6cbd cdcf 27bd
00000380: d92d 19bd ccc2 4b3e 0ae5 b0bc 7153 d1be
00000390: 1ef1 043e a295 bdbc 8100 ad3e cae9 41bc
000003a0: dc69 8cbe 1341 3e3d 9125 4e3d a4e4 973e
000003b0: 5aae 40bd d90b 8db9 2993 36bd 07bd 173d
000003c0: 73ea f83d 1ecd b43e 11d2 3a3f 4ced 67be
000003d0: 8f7d 023f 767a bc3e ac4a 80be 57d8 fa3e
000003e0: dfac 25be 6bb7 9abd 8602 8f3e 81c3 373f
000003f0: 3e75 d9be a3be 903f 6f35 c73e f1f9 2cbf

lstm.weight_hh_l1 f4 [40, 10]
0.2880701 0.19719975 -1.6143185 0.2579969 0.35291943 -0.32691485 0.23086143 0.21872702
0.1929846 -0.5574107 3.123343e-05 -0.0010959439 -1.2933666 0.065394424 -0.07180935 -0.16089301
0.1938971 0.10414461 0.077953555 -0.6450668 0.020157719 0.212855 -0.35896233 0.27503
0.5737774 -0.23073371 0.21467002 0.088031635 0.108135 -0.4453885 0.18218839 -0.019911172
-0.26867792 0.108161956 0.11784515 -0.61575145 -0.08648651 -0.11102823 0.07502824 0.00094599434
-0.035796113 -0.04082013 -1.3022895 -0.18602099 0.45127875 -0.1947735 0.16929623 0.22721638
-0.14620838 -0.76910406 0.29377675 -0.09719921 -1.4403335 0.05897897 0.40247747 0.1128564
0.08514233 0.29903933 -0.014606243 -0.45008263 -0.26176697 -0.16164371 -1.0013328 -0.21917401
0.4607044 0.03594649 0.28963012 0.17306115 0.075768605 -0.5932129 0.056617502 0.16795032
-1.3447858 -0.23360166 0.19936478 -0.5223019 0.1912267 -0.0975235 0.16194822 -0.5432856
-0.08972121 -0.1258949 -0.9818907 -0.21731192 0.40091082 -0.58684677 0.20374654 0.11971172
0.22231305 -0.884278 0.44077727 -0.08885576 -1.1783705 0.23548543 0.2220042 -0.46488595
-0.11802082 -0.025535705 -0.28627035 -0.29666325 -0.09823359 0.38447627 0.3552965 0.45205313
-0.48621315 0.3047134 -0.32709128 0.037490238 0.41929615 0.9850761 0.008728709 -0.0996916
0.04393612 0.25014853 -0.058157075 -0.04729664 0.19703983 -0.38227776 0.17285104 -0.12363513
0.21211629 0.3033991 0.6228305 0.57141036 0.72455406 -0.553645 0.18339315 -0.4518195
0.20842044 0.15935095 0.21385704 0.1969733 0.6935526 -0.0060326112 0.12125702 0.45535365
0.008308979 -0.2513354 -0.2518065 0.28963226 0.8241516 0.023476014 0.5460804 0.0049141333
0.17951909 0.5148609 0.13968705 -0.2610933 0.08942961 0.42036554 0.15820037 0.3467455
0.15961836 0.12600961 -0.13461848 -0.19694784 -0.049383227 0.12586617 0.6614972 0.7312707
0.36518604 -0.20189989 0.77378196 0.19813615 -0.071701705 0.24826454 0.16887628 0.09155983
-0.06386697 0.66380584 0.42180297 -0.07573529 0.58704996 -0.08893817 0.32992485 0.64660555
-0.1412699 -0.19098838 0.065422684 0.34969518 -0.053587753 -0.06324016 0.41304526 0.10385947
0.26709327 -0.11615063 0.031433087 -0.30935442 -0.20625344 0.9413601 -0.18602403 0.43737763
0.25496382 0.5878878 0.0843237 -0.024030074 -0.06293953 -0.73223317 0.65821517 0.05126327
-0.13493262 0.009217918 -0.3185724 0.122374766 -0.1226229 0.5344721 0.19997315 -0.10404919
0.060256224 0.064354755 -0.0677821 0.22659975 0.4289378 -0.008011452 0.055608086 -0.056847055
-0.023039121 -0.33920392 0.13174123 0.15353389 0.21609505 0.21595082 0.1224677 0.026971135
-0.2277867 0.12258736 0.09879033 -0.10635741 0.053196073 0.6333716 -0.26967347 0.081043616
0.039670184 0.026066476 0.29025006 0.04758524 0.11426199 -0.2395399 0.18204816 0.48134285
0.62380356 0.0755987 0.14698601 0.41196173 -0.33959666 0.12669902 -0.12796026 -0.07211067
0.19891635 -0.12755856 -0.5387192 0.070328206 0.14300714 0.07891474 -0.16740598 -0.5379105
00000000: ed7d 933e bbee 493e fda1 cebf 2b18 843e
00000010: dbb1 b43e 6261 a7be f066 6c3e faf9 5f3e
00000020: c19d 453e 78b2 0ebf a400 0338 c6a5 8fba
00000030: 098d a5bf 83ed 853d c810 93bd 23c1 24be
00000040: f68c 463e c549 d53d 1da6 9f3d 1923 25bf
00000050: cd21 a53c a9f6 593e e9c9 b7be bbd0 8c3e
00000060: 13e3 123f 7545 6cbe 75d2 5b3e ee49 b43d
00000070: e275 dd3d f609 e4be 988f 3a3e c11c a3bc
00000080: 2790 89be 0484 dd3d cc58 f13d e3a1 1dbf
00000090: d71f b1bd c562 e3bd 68a8 993d 9bfc 773a
000000a0: f29e 12bd 0233 27bd 6cb1 a6bf 497c 3ebe
000000b0: 020e e73e b472 47be fe5b 2d3e 69ab 683e
000000c0: a6b7 15be 01e4 44bf e869 963e 6110 c7bd
000000d0: d95c b8bf ef93 713d 8711 ce3e 4221 e73d
000000e0: 1a5f ae3d af1b 993e 064f 6fbc 3b71 e6be
000000f0: 5206 86be ee85 25be ac2b 80bf 276f 60be
00000100: 72e1 eb3e a03c 133d 664a 943e f136 313e
00000110: 922c 9b3d cddc 17bf c1e7 673d 2bfb 2b3e
00000120: f121 acbf 4635 6fbe 4826 4c3e 94b5 05bf
00000130: efd0 433e 67ba c7bd c1d5 253e c414 0bbf
00000140: c1bf b7bd 98ea 00be 305d 7bbf 0487 5ebe
00000150: 2f44 cd3e 973b 16bf efa2 503e 6b2b f53d
00000160: 08a6 633e 0b60 62bf 8fad e13e 02fa b5bd
00000170: d8d4 96bf 1823 713e 1255 633e 8805 eebe
00000180: e6b4 f1bd 4130 d1bc 0792 92be 3fe4 97be
00000190: b12e c9bd 13da c43e 6ce9 b53e 8273 e73e
000001a0: eef0 f8be 6503 9c3e 8278 a7be 5d8f 193d
000001b0: fcad d63e f32d 7c3f dc02 0f3c 1c2b ccbd
000001c0: 5cf6 333d 7813 803e 1d36 6ebd 1fba 41bd
000001d0: cfc4 493e e9b9 c3be ddff 303e 6a34 fdbd
000001e0: 0335 593e 2057 9b3e d271 1f3f f347 123f
000001f0: 607c 393f aebb 0dbf 6acb 3b3e e354 e7be
00000200: 2b6c 553e e52c 233e 57fd 5a3e 5eb3 493e
00000210: aa8c 313f 36ad c5bb 9a55 f83d 1d24 e93e
00000220: 6222 083c 09af 80be c8ec 80be ae4a 943e
00000230: 99fb 523f c550 c03c edcb 0b3f bd06 a13b
00000240: dad3 373e edcd 033f 1f0a 0f3e 05ae 85be
00000250: df26 b73d 273a d73e 47ff 213e a088 b13e
00000260: ff72 233e aa08 013e 6dd9 09be b2ac 49be
00000270: 1146 4abd 10e3 003e e157 293f 8e34 3b3f
00000280: aaf9 ba3e d8be 4ebe 9316 463f 34e4 4a3e
00000290: 58d8 92bd 0f39 7e3e e7ed 2c3e b883 bb3d
000002a0: b0cc 82bd 2eef 293f 8ff6 d73e 1b1b 9bbd
000002b0: e848 163f 3725 b6bd e9eb a83e f187 253f
000002c0: 0fa9 10be 7592 43be 54fc 853d 3f0b b33e
000002d0: d57e 5bbd 0f84 81bd ab7a d33e 46b4 d43d
000002e0: 73c0 883e 62e0 edbd fbbf 003d b463 9ebe
000002f0: 1a34 53be fafc 703f 157d 3ebe f6ef df3e
00000300: 9e8a 823e d17f 163f e7b1 ac3d b8da c4bc
00000310: 71e6 80bd a273 3bbf ca80 283f 6ff9 513d
00000320: c72b 0abe c006 173c ec1b a3be 9f9f fa3d
00000330: b721 fbbd 2ad3 083f c3c5 4c3e be17 d5bd
00000340: 3bcf 763d 6dcc 833d 57d1 8abd c409 683e
00000350: bc9d db3e 7742 03bc 4ec5 633d 75d8 68bd
00000360: 8abc bcbc 23ac adbe 2ce7 063e fd37 1d3e
00000370: 0548 5d3e 3622 5d3e 58d0 fa3d 92f2 dc3c
00000380: eb40 69be 150f fb3d 9652 ca3d ead1 d9bd
00000390: 20e4 593d a424 223f a412 8abe 32fa a53d
000003a0: 347d 223d 5d89 d53c a89b 943e bee8 423d
000003b0: 3102 ea3d f349 75be d56a 3a3e 9272 f63e
000003c0: 97b1 1f3f 7ed3 9a3d 8083 163e a6ec d23e
000003d0: 9ddf adbe 63bd 013e 0408 03be c2ae 93bd
000003e0: bab0 4b3e b69e 02be 80e9 09bf 3c08 903d
000003f0: 7770 123e 0d9e a13d 796c 2bbe 81b4 09bf

lstm.bias_ih_l1 f4 [40]
0.42400882 0.17048039 0.28403044 -0.10126496 0.6792196 0.4838004 0.74610746 0.14442489
0.117508546 0.80066603 -0.1070717 0.27170706 0.2656036 0.093620285 -0.17852207 -0.017033298
-0.19005364 0.28179955 0.072539285 -0.35847682 0.032196265 -0.18507779 -0.44959387 0.03472713
0.2410992 -0.09905363 0.021661244 0.31686527 0.18248333 -0.20185217 0.29546764 0.47960335
0.28425896 0.10588987 0.823629 0.5603823 0.07682628 0.21145155 0.045679726 0.58596253
00000000: af17 d93e 6992 2e3e 706c 913e 0164 cfbd
00000010: 56e1 2d3f b0b4 f73e e600 3f3f 1ee4 133e
00000020: 52a8 f03d 73f8 4c3f 6848 dbbd 301d 8b3e
00000030: 32fd 873e febb bf3d 7dce 36be 6a89 8bbc
00000040: 6c9d 42be 0848 903e 7a8f 943d 468a b7be
00000050: 3be0 033d 0885 3dbe 2b31 e6be 093e 0e3d
00000060: b5e2 763e a1dc cabd ec72 b13c 2a3c a23e
00000070: e9dc 3a3e 56b2 4ebe 8947 973e 928e f53e
00000080: 648a 913e cadc d83d 5ad9 523f 3775 0f3f
00000090: 1957 9d3d c186 583e aa1a 3b3d a401 163f

lstm.bias_hh_l1 f4 [40]
0.24325769 0.21519029 0.65431714 0.3512016 0.57630897 0.7862167 0.4585329 0.38400355
0.46783265 0.6777896 0.27139577 -0.07820791 0.41889536 0.2181272 -0.19691803 -0.10987283
0.23003969 0.033855166 0.099776305 -0.2657775 0.4011483 0.08696081 -0.28925732 -0.050885674
0.20483495 -0.15964764 -0.15589456 -0.15260223 -0.15167429 0.23353788 0.5713723 0.2859425
0.6396915 0.106351234 0.67615664 0.26803112 0.5511984 0.20068504 0.60511005 0.6851
00000000: 8b18 793e d85a 5c3e 5481 273f b2d0 b33e
00000010: fc88 133f 7f45 493f d3c4 ea3e 1d9c c43e
00000020: c387 ef3e 9f83 2d3f 63f4 8a3e 782b a0bd
00000030: 7479 d63e bd5c 5f3e e1a4 49be 0205 e1bd
00000040: 868f 6b3e b7ab 0a3d 8557 cc3d fd13 88be
00000050: 4f63 cd3e 8218 b23d 8919 94be 7f6d 50bd
00000060: 41c0 513e ac7a 23be d3a2 1fbe c243 1cbe
00000070: 8150 1bbe 8e24 6f3e 7445 123f 0e67 923e
00000080: d2c2 233f adce d93d 9a18 2d3f 603b 893e
00000090: 571b 0d3f 6180 4d3e 7ee8 1a3f b762 2f3f
